ai/speech/chatNB3/models/marvin.pt (torch, 667461 bytes, 7 tensors)

conv1.weight f4 [32, 1, 2, 2]
00000000: 9b31 4dbe 614e cb3e c00c d5be 2020 b2be
00000010: 82e2 3c3e a725 8d3e cc52 1abe 258d 553e
00000020: cb28 4a3e 74f0 13be 7a1c 883e 3b69 c4be
00000030: e026 f23d 43a8 adbd b3f8 af3e 2004 b9be
00000040: cab7 b83e d072 7cbe 6119 f53c e802 d7be
00000050: a83f 633d 7ea2 a13e e04e 6abd ef48 243d
00000060: eceb c23e 0ede d53d b7c9 d73e ef79 05bf
00000070: b095 103e b3e9 e2bd 9345 9c3e ca58 643e
00000080: c90a fbbe d7ed f43e de45 6d3e 772d 843c
00000090: b910 c43e c858 15bb 6e3d e13e c22c 193e
000000a0: 946d 59be 205d 833e def2 7fbe a89d 0abe
000000b0: df08 3fbe 9e4b be3e 2053 32be 550e e6be
000000c0: dab4 383e 16e3 a03c 0c96 b0be e03e 99be
000000d0: 366e e8be 2dbc f2bb 7709 d5bd 3a55 6a3e
000000e0: be9e acbe 2888 dfbe b3e2 7dbe ddbf 92be
000000f0: 196c ca3e be39 2f3e 3684 4dbe 1a0a e23e
00000100: 7667 6cbc dc6f 5d3d 3b5d a5be 9fdf 903e
00000110: c26c 05bd 2a36 9abb 2de0 343e fc58 d13e
00000120: 92b0 7a3e 8931 a83e 2f9a 173d 366c 8c3e
00000130: 2a1c f73e 14d7 b1be 1b7a e3be 956b 7cbe
00000140: b266 923e 6db7 9ebe 4ddf c83e d43c 843e
00000150: ed67 27be 5422 86be dbe9 34be d03d 52bd
00000160: b4d9 b0bd fb9f e7be 22f5 ee3e 9ee8 1e3e
00000170: 8752 133e 1cdf f8be 64c1 df3c 98ea 7bbe
00000180: eda6 31be 8220 4fbb 1cc9 e7be 0569 83be
00000190: d92f f33c 6308 e23d b91b bf3b a53f b93e
000001a0: b52b d9be 16bf c7bd bd75 09bf 76ef 1fbe
000001b0: a671 29bd 81d2 cdbe 8e2c 55bd aadd 12bf
000001c0: f5b1 993e 59d0 87be 167b cb3e 805e eabe
000001d0: 1e79 02bf de5e 963b 0af6 d73d 673a a0be
000001e0: 70c6 903e 64d3 353e b8ed fcbe ce9f a7bc
000001f0: d331 9ebe 1d64 9c3e 5e97 d53e ff75 cc3d
-0.20038454 0.39708236 -0.4161129 -0.34790134 0.18445781 0.2756779 -0.15070647 0.20854624
0.19742124 -0.14447194 0.26584226 -0.38361534 0.11823821 -0.08479359 0.3436943 -0.3613596
0.3607772 -0.24653172 0.029919328 -0.41994405 0.05548063 0.31569284 -0.057204127 0.040108617
0.3807062 0.10442744 0.42146084 -0.5213918 0.14119601 -0.11079731 0.3052183 0.22299495
-0.49031666 0.47837707 0.23171183 0.01613496 0.38294008 -0.0022788513 0.4399218 0.1495848
-0.21233207 0.25656986 -0.2499499 -0.13536704 -0.18655728 0.37167066 -0.17414522 -0.4493281
0.1803774 0.019639533 -0.34489477 -0.29930782 -0.45396584 -0.007407686 -0.10402196 0.22884074
-0.3371486 -0.43658566 -0.2479351 -0.28662005 0.39535597 0.1711187 -0.20069966 0.44148332
-0.014428964 0.054061756 -0.32297692 0.2829561 -0.032574423 -0.004706164 0.17663641 0.40888202
0.24481419 0.32850292 0.037012275 0.27426308 0.48263675 -0.34734404 -0.44429097 -0.24650414
0.28593975 -0.30999318 0.39232865 0.25827658 -0.16348238 -0.26198065 -0.17667334 -0.05132848
-0.086352736 -0.45239243 0.46671396 0.15518424 0.1438695 -0.4860772 0.027313896 -0.24601209
-0.17348833 -0.003160507 -0.45270622 -0.2566606 0.029685901 0.11036756 0.005832162 0.3618137
-0.42416158 -0.097532436 -0.5369528 -0.15618691 -0.04136815 -0.40199664 -0.052044444 -0.5736948
0.30018583 -0.26526144 0.39742345 -0.45775223 -0.5096606 0.004588946 0.10544975 -0.31294557
0.28276396 0.1775642 -0.49400115 -0.020461943 -0.30897388 0.3054513 0.41717046 0.099834435

conv1.bias f4 [32]
00000000: 561c 763e 6db1 91be b769 dc3e dd6a 26be
00000010: 2ab4 4ebe 7585 e53e ace0 283d 8585 343d
00000020: b319 d13d 6550 aa3e 8f1c 22be 4b4a 43bc
00000030: 0135 b9bd 9617 28bd e21e bf3a a4f7 083e
00000040: ed30 7abc 120e 033e 94a9 91be b210 64bd
00000050: 9ed1 f03e 85c3 a53e 9538 af3e e99f 85bd
00000060: 134f ac3e 59f4 b0bd cd20 b83c 1872 84be
00000070: 89ac eb3e ae4b 9e3e c6c1 11be cde9 b63e
0.24034247 -0.28455678 0.43049404 -0.16251703 -0.20185915 0.44828382 0.04122989 0.044072647
0.1020998 0.3326446 -0.15831207 -0.011919568 -0.09043313 -0.04103812 0.0014581347 0.13375717
-0.015270454 0.12798336 -0.2844969 -0.055679984 0.47034925 0.32375732 0.34222856 -0.06524641
0.3365408 -0.086403556 0.022476578 -0.25868297 0.4603007 0.30917114 -0.14234075 0.3572525

conv2.weight f4 [64, 32, 3, 3]
00000000: 0b38 8c3d 4fc0 b53c b39b 533d 5a22 4cbc
00000010: 466f 22bd cac3 513c cc4c 10bc 0a6f f2bc
00000020: 5131 3dbd 53c5 16bd de08 06ba 8cc9 28bd
00000030: 3ef3 6bbc 2728 ab3c 0eed 97bc ae38 12bd
00000040: 77fa fabc d1b1 783d 1de8 393c 5080 62bc
00000050: 6b22 383d 5c74 89bd a76f edbc c9c2 84bc
00000060: 92f5 28bc ef41 15bd 8528 74bd f704 d9bd
00000070: 6b27 08be 0427 b73a 15d5 f7bd 2514 35bd
00000080: d856 fabd e1f0 8dbd b146 92bc 031c 17be
00000090: 5fad 93bd 096c a5bd 7634 9f3b 31a1 95bd
000000a0: baaa 773b 39b5 26bd ca0e 8abd 55c5 ecbb
000000b0: 94ff 7fbd 113e 70bd 1f8f 1f3d fc1e e1bc
000000c0: 5057 dbbc a80c a9bd 8239 31bd 581d 08bd
000000d0: d414 213b 33be 663d ba62 243c 24b0 20bd
000000e0: 22cc 243d 2477 253c a37c 1b3d 9973 d0bd
000000f0: 5134 4c3d 5c8a 5bbc 77f0 53bd 4f55 e33c
00000100: c493 77bd 0df0 86bc 52b4 0fbc af61 5fbd
00000110: c029 433d 2bfb 38bd 8dc2 853d cf39 f03c
00000120: 596b 0bbd 1efa 89bc 9c07 72bd 9cd2 b0bc
00000130: a72f c9bd b3f6 f5bc 5ae2 85bd f14e 38bd
00000140: 41c7 383c cdd1 38bd 1975 50bd 2101 083c
00000150: fa26 8ebc c8a5 afbd 39f9 19bd 82b5 6cbd
00000160: 94d0 05bd f740 c53c 2c9f 713d 7baf e23d
00000170: 021d 1a3d b130 77bd e3e2 64bc 965a 7fbd
00000180: b7a0 5fbc 28eb a7bd e4f4 2f3d 703f 50bc
00000190: ed58 5d3d a425 9b3d cbc5 b13c 8929 d13b
000001a0: bdc4 343d b187 9cbc 99b4 f7ba 7674 f43a
000001b0: f43e 2ebc 4815 d2bc 8e96 803d 139a 27bd
000001c0: e0e9 453c 6ce3 833c 98e9 b3bc 855f a3bd
000001d0: 5c12 2dbd f1f7 273a 86ee 21bd 1bd5 99bd
000001e0: e37f 253d 46bc cc3c d35a 753d ba28 063d
000001f0: 527b 1dbc 2c57 9f3d 6428 e13c cab2 1b3a
00000200: b013 593d d792 0e3d 745f 223d 4597 223d
00000210: 3d41 adbb 857b d7bc d5d7 8cbb 56a2 57bd
00000220: a4b0 e6bb d472 6d3c f9a8 60bc c241 42bc
00000230: fa72 99bd 738d 23bd f0a6 c23b 67af 93bc
00000240: 784a 21bd df7f 1dbd ef06 7a3c 0d99 4ebd
00000250: f3f8 0ebe ed9c 133c 3834 2a3d 8f11 a8bd
00000260: b16b 1dbc 0998 483c c052 7cbd f542 05bd
00000270: 4987 653b 664f 31bd 35d4 d93c 77aa 34bd
00000280: a773 76bc b270 223d 45c7 1a3d cac2 a83c
00000290: 0310 493d b67d 8fbd b77d 96bd 20d6 05bd
000002a0: 0896 b639 4066 be3c 2549 003d 05d6 d6bd
000002b0: a639 bfbb 7111 3abc 5eeb e0bc 4d84 bebb
000002c0: 9588 1a3d 958e 7bbd 58fa 073b bd1c 23bd
000002d0: 5575 3dbc 22eb 75bd b96d fbbd 91a0 d8bc
000002e0: 3062 8b3b a7a0 353c 299c 80bc 0a8a 0c3b
000002f0: 24bd 93bb c755 093d 1965 5b3c 2c82 473d
00000300: 1ee5 6cbc 6a58 56bc 9e1b 33bc 4128 20bb
00000310: 8319 3cbd 4c1e b4bc 7ae7 cb3c f45f 2a3d
00000320: edd8 2d3d 6ea9 2f3d b26b 833d 53df 393d
00000330: 6b46 9a3c 5e7a 313d 33f6 c13b e3aa d8bc
00000340: 50fc 10bd b5ac 203d 355b 9c3c de99 2fbd
00000350: 479d 853d 2b46 aebd 1f7c 3c3d c9ff 8abd
00000360: 3773 883a 778b 593d f2c0 9c3c 990c 21bd
00000370: 7475 073d 41cc 713d dc22 0b3d 24f4 66bd
00000380: d874 9f3b 8661 d7bb 2024 b13c ea15 ae3c
00000390: 2387 86bd 3ea4 84bd e589 ccbb a6ef 11bd
000003a0: 5f8e 5f3d aca1 683d a120 903d cad6 bd3c
000003b0: 3c7f 823d e180 223c ff5a 88bd b059 543d
000003c0: 71eb c1bd 2778 d6bd dfb8 8fbd 3ad7 94bc
000003d0: 7138 633c 02b4 a63d 1bdf 9c3c 8009 0e3d
000003e0: d048 a73c 3e48 7dbd 7683 b0bc 97a8 7bbd
000003f0: b15a f2bc 8a01 c5bd afb9 9c3c 54d1 97bc
0.06846627 0.022186426 0.05166216 -0.012459362 -0.0396569 0.012803027 -0.008807372 -0.029593963
-0.04618961 -0.036809277 -0.00051130156 -0.041207835 -0.014401255 0.02089317 -0.018545654 -0.035698585
-0.03063701 0.060716454 0.011346844 -0.013824537 0.0449547 -0.06711647 -0.028983904 -0.016206162
-0.010312455 -0.036439832 -0.059608955 -0.1059665 -0.13296287 0.001397342 -0.12101189 -0.044208664
-0.122235954 -0.0693071 -0.017855974 -0.1475678 -0.07210802 -0.08077247 0.0048585488 -0.073061354
0.003779097 -0.04070017 -0.06741102 -0.0072256722 -0.062499598 -0.05865294 0.03895485 -0.027480595
-0.026775032 -0.08254367 -0.043267734 -0.03323111 0.0024579065 0.05633373 0.010033304 -0.03923048
0.04023374 0.010099206 0.03796066 -0.101782985 0.04985458 -0.013399687 -0.051742997 0.02775064
-0.060443655 -0.016471887 -0.008771019 -0.054536518 0.047647238 -0.045161407 0.06531248 0.02932444
-0.03403792 -0.016842898 -0.059089288 -0.021584801 -0.09823542 -0.030024862 -0.06537314 -0.04499716
0.011277975 -0.045121957 -0.050892923 0.00830105 -0.01735257 -0.08576542 -0.037591193 -0.057790287
-0.03266962 0.02407883 0.05898969 0.110686265 0.03762532 -0.06034917 -0.01397011 -0.06234225
-0.013649157 -0.08199149 0.042958155 -0.012710437 0.054039884 0.07575539 0.02170076 0.006383125
0.044132937 -0.019107671 -0.0018898427 0.0018650431 -0.010635126 -0.025644913 0.06278716 -0.04091842
0.012079686 0.016099654 -0.021961972 -0.07977203 -0.042253837 0.00064074906 -0.039534114 -0.0751135
0.040405165 0.02499212 0.05990107 0.032753684 -0.009611921 0.077802986 0.02748508 0.00059394224
0.05299729 0.034808006 0.039641812 0.039695043 -0.005287318 -0.026304016 -0.00429819 -0.05264505
-0.0070401 0.014492709 -0.013712161 -0.011856498 -0.07492633 -0.03992982 0.0059403107 -0.018027974
-0.03937766 -0.038452026 0.015260442 -0.05043893 -0.13962154 0.009009582 0.041553706 -0.08206474
-0.009608195 0.012243279 -0.061602354 -0.03253456 0.0035023263 -0.04328861 0.026590446 -0.04410788
-0.015042222 0.039658256 0.037787694 0.020600695 0.049087536 -0.07006399 -0.07348197 -0.03267491
0.00034825527 0.023242116 0.031319756 -0.1049004 -0.0058357297 -0.011356697 -0.027455982 -0.0058141113
0.03772791 -0.061415274 0.0020748582 -0.03982233 -0.011563619 -0.060038693 -0.12276787 -0.026443752
0.004253648 0.011085666 -0.015699463 0.0021444582 -0.0045086313 0.03352907 0.013390803 0.048708126
-0.014458923 -0.013082603 -0.010931877 -0.0024438056 -0.045922767 -0.021987103 0.02489065 0.041595414
0.042443205 0.04288619 0.064170256 0.045378994 0.018832406 0.04332959 0.005919242 -0.026448673
-0.035396874 0.039227206 0.01908646 -0.04287135 0.06524139 -0.08509477 0.04601681 -0.067870684
0.0010410313 0.05311152 0.019134972 -0.039318655 0.033070996 0.059032682 0.03396879 -0.056385174
0.004866224 -0.006572905 0.021623671 0.021250684 -0.06568744 -0.06476639 -0.0062420242 -0.035628937
0.054579135 0.056794807 0.070374735 0.023173708 0.06371924 0.009918422 -0.06657981 0.051843345
-0.09468735 -0.10472136 -0.07017683 -0.018169034 0.013868437 0.081398025 0.019149354 0.03467703
0.020420462 -0.061836474 -0.02154706 -0.061440077 -0.02958426 -0.09619434 0.01913151 -0.018532433

conv2.bias f4 [64]
00000000: 7a01 bdbc b88d 323d 62b6 913c 408a 07bd
00000010: a959 e1bb 0726 1e3d e232 2f3d 2d86 bd3c
00000020: c9e6 e23b 5c30 cf3b 6e0e 413c 114d 37bd
00000030: ec85 483d 9d37 03bc 88a2 8dbb 847a 3ebd
00000040: bceb bebc 5d4e 0dbc f9e0 b6bc 3bd0 0ebd
00000050: 5a12 87bc 2196 dcbc 53ef 843d ce9d 073c
00000060: fc1c 6dbd ebb3 a83c 7d08 8f3d c5ab 62bc
00000070: 8842 013d 087b 3b3d 5ee4 fa3c 3d75 793d
00000080: b08e 20bc fff8 903b 6cd4 813d 2325 d33c
00000090: 4174 4abd d7d5 bcb9 7209 deba 3272 62bc
000000a0: d53b 363d 6ce7 a03c a34b 2c3c d2e6 753d
000000b0: a6f4 aa3c df5e 90bb 9194 85bc 6749 ea3c
000000c0: 7d20 25bd 4db1 3b3d 8ae1 2fbd c09d 6abd
000000d0: 7c09 e93b 7948 cc3c 69da 4bbd b212 26bd
000000e0: 4030 963d e329 0c3c c4ae b83d 7998 0ebd
000000f0: 20b4 46bd b67f 2e3d 0a46 9e3d 1353 43bd
-0.023071993 0.043592185 0.017787162 -0.03309083 -0.0068771434 0.038610484 0.042773135 0.023135269
0.0069244844 0.0063229036 0.011783225 -0.04475123 0.048955843 -0.008008865 -0.0043223538 -0.04650356
-0.023305766 -0.00862464 -0.022324072 -0.034866553 -0.016488243 -0.026927056 0.0649096 0.00827737
-0.05788897 0.020593604 0.06984041 -0.013834898 0.03155759 0.04577163 0.030626472 0.060902823
-0.009799644 0.004424214 0.063393444 0.025774544 -0.049427275 -0.00036017477 -0.0016940071 -0.013821172
0.044490654 0.0196416 0.01051608 0.06003458 0.02086861 -0.0044058408 -0.016306194 0.028599454
-0.040314186 0.045823384 -0.0429397 -0.05727935 0.0071117263 0.024936901 -0.04976884 -0.040545173
0.07333422 0.008554908 0.09017709 -0.034813378 -0.048511624 0.042602263 0.07728203 -0.047686648

linear1.weight f4 [64, 2304]
00000000: ef63 d4bb d399 52bc 869d 303c 117a 59bc
00000010: bdc3 28bc 6a60 963c 5456 99bc 9273 aa3b
00000020: d789 94bc a427 5abc b6f3 01bc 0023 19bc
00000030: 7468 7cbc 74eb 81bc e570 a4bc e9d3 903b
00000040: f4da 4ebc aec3 b8bb dcf6 b9bc c670 81ba
00000050: b61e a0bc 1738 4fbc aeaa 6bbc 9ebf 98bc
00000060: 9b85 12bb 3ed3 9abc d641 50bc 23ac 14bc
00000070: 3955 5dbb 2af7 eebc 965e 8b3c b912 4bbc
00000080: d483 43bc 7c73 b23b 8b36 4b3c c295 47bc
00000090: 1e14 bbbc f7b3 00bc 2492 36bc 7463 fa3b
000000a0: 05f2 89bc debb d7bb 4362 ce3b bb12 333c
000000b0: 7ae1 91bc 1ef5 ad3b cdd3 42bc 767e cbbb
000000c0: d90e a3bc a192 bf3a 1303 5d3c 13d4 ca3b
000000d0: 3b1c da3b 9f46 58ba aab4 95bb ddfc ad3b
000000e0: c641 65bb 0ab5 0bbc f496 64bc ff14 08bc
000000f0: acb5 67bc 3257 98bc 4e2b c33b c7fe 973a
00000100: 1145 1e3b 6d3a bbbc 1c2f f6ba 515e a1ba
00000110: 9e69 7bbc 9b4e a6bc 80cb 05bc 907e 1738
00000120: 07d2 80bc bf74 63bb 04eb 113c 8072 a1bb
00000130: bf39 8ebc ad0d 77bb cd5f 6b3c 60b1 50bb
00000140: ced0 44bc 4b08 bc3b 347c ac3b 63d1 aabb
00000150: 707c 80bc d1c3 b4bb abc4 2ebc d51f 2fbc
00000160: 6cbd 63bc 3d30 903b a801 d03b de41 9d3b
00000170: 5991 3e3c ccea 81bc f10b 17bb e8db 8cbc
00000180: c29c 8b3b d546 97bc 6833 2f3b 7006 25bc
00000190: 8586 67bb 5449 4abc dd7a eabb 1e79 673c
000001a0: 0852 143c 6fe1 203c 87ab 133c c5a1 a73b
000001b0: 8294 cc3b fcfb 503c 99c6 c23b 71df 943b
000001c0: 51fa b539 94d8 373c 57dc 13bb 0b0f 8dbc
000001d0: 73f3 663b b75e a9bb 9c69 fc3b bdb5 8a3c
000001e0: aae7 b53b 0de0 fa3b 2774 c0bb a611 c43b
000001f0: 144c 3c3c 3505 a63b fe20 093c 8450 703c
00000200: f06a 8bbc 8214 86bc 5b6b 663c 536a 93bb
00000210: f006 413b 242d 12bc e217 26bc 4d9c 313c
00000220: 471f e63b 640d 233c e977 8dbc b26a 2dbb
00000230: 4940 99bb fe78 463c 2969 99bb 1222 0fbb
00000240: 9950 aa3c e7d1 7c39 09ae d33c 6a62 6c3c
00000250: 6c32 173c db47 773c 60fc fe3b 86ae c5bb
00000260: dc11 8b3c 4bb5 17bc fe4e 9dbb 1b4e 8f3b
00000270: 93d5 41bc 3819 e93b a3a4 ffbb 9033 6aba
00000280: 43c0 063c 439f 83bc ff9c 71ba 8d8c c1bb
00000290: 7286 0bbb 7c5a dabb 65ad 723b 5c62 5c3c
000002a0: 6b82 2aba a9d3 3fbb 441f 7b3b 9f9f 57bc
000002b0: f272 3dbc b86a fcbb 30a2 523b b9ee 05bc
000002c0: 0fff 95ba d1db febb 9399 6e3b 0237 923b
000002d0: f8cd b03b 7a71 7e3c 83be 28bb 17bd 38bc
000002e0: 92b8 063c 482b 0abc f662 1dbb c1b0 4abc
000002f0: db2d 5eba e9f2 a83b 585d 22bb e8fe 943c
00000300: 1c02 383c 4347 38bb ea0c 5f3c 5ccc c53b
00000310: 13c0 14ba 1402 8e3b c835 af3b dd51 953a
00000320: faa0 8fbb e862 363b 65a6 f4bb 6fe7 0fbc
00000330: 7b11 efbb 7fba 253c 72e3 6dbc e273 5f3b
00000340: a553 24b9 781f 9a3c 1768 aaba 15bb 343c
00000350: 416b 9dba a5d2 a13b 3067 fd3a 1110 b03c
00000360: 8831 0dbb 09ac c23b 8fc1 08bb b028 983c
00000370: c0ce e93a 663b a93c f7e6 53bc 71a8 4cbc
00000380: c971 40bc f2b9 3dbc 3678 823c 9195 bbbb
00000390: edec 083c bcb2 22bc 79cc c4bb b22d 71bc
000003a0: 4477 f23b dd5b 6d3c af4d ddbb f923 703b
000003b0: 6ce5 c4bb 5bdf 3cbc 291e 463c a017 2bbc
000003c0: 50a7 36bc 2099 a5bb 4ece 623c 0b17 03bc
000003d0: 3084 863c 524f 5dbc 4c95 03bc d7eb ccbb
000003e0: a683 963b 8b91 22bb 7e0b c43b 9a6a b8bb
000003f0: e183 f539 91c9 e23b ca11 233c 7f34 1cbc
-0.0064816396 -0.012854057 0.010779744 -0.013273732 -0.010300574 0.01835652 -0.018717922 0.0052017653
-0.018132133 -0.013315115 -0.00793164 -0.009346724 -0.015405763 -0.015859343 -0.020073364 0.004419793
-0.012625445 -0.005638561 -0.02270072 -0.0009875528 -0.019545894 -0.01264765 -0.014383955 -0.018646058
-0.0022357467 -0.018899556 -0.012711009 -0.009074244 -0.003377272 -0.029170591 0.017012876 -0.012394601
-0.011933286 0.0054458957 0.012403141 -0.012181701 -0.022836741 -0.007855407 -0.011143241 0.0076412503
-0.016839037 -0.006583675 0.006298335 0.010929759 -0.01780771 0.0053087613 -0.011891318 -0.0062101437
-0.01990454 0.0014615842 0.0134895025 0.006189832 0.0066561974 -0.00082502695 -0.004568656 0.0053096847
-0.003498183 -0.00852705 -0.013952006 -0.008305787 -0.014142435 -0.018596265 0.00595609 0.0011596315
0.0024150054 -0.022855008 -0.001878235 -0.0012311434 -0.015345005 -0.020301154 -0.008166194 3.6119076e-05
-0.015725149 -0.0034707037 0.00890613 -0.0049269795 -0.01736152 -0.003769736 0.014366102 -0.0031844005
-0.012012674 0.0057382933 0.0052638296 -0.005212949 -0.015684336 -0.005516507 -0.0106670065 -0.010688742
-0.013900142 0.0044002817 0.0063478537 0.0047991117 0.011631333 -0.01585903 -0.002304789 -0.017194703
0.0042606303 -0.018466393 0.0026733521 -0.010072336 -0.0035327983 -0.012346584 -0.0071557597 0.014127998
0.009052761 0.009819373 0.009013063 0.00511572 0.0062432894 0.01275539 0.005944085 0.004543238
0.0003470951 0.01122107 -0.0022561753 -0.017219087 0.0035240322 -0.0051687616 0.0077030193 0.016932363
0.005551298 0.0076561035 -0.0058732214 0.005983549 0.011492748 0.0050665387 0.008369682 0.014667634
-0.017018765 -0.0163672 0.0140636815 -0.004498759 0.0029453598 -0.008921895 -0.01013753 0.010840488
0.0070227715 0.009951923 -0.017269092 -0.00264613 -0.004676853 0.012113808 -0.0046817255 -0.0021840376
0.020790385 0.00024110787 0.025839822 0.014427761 0.00922833 0.015092815 0.0077815503 -0.0060327677
0.01697629 -0.009259532 -0.0048006764 0.0043733246 -0.011830705 0.007113602 -0.0078016086 -0.0008934075
0.00822455 -0.016067153 -0.00092168147 -0.0059066475 -0.0021289852 -0.0066636186 0.003702962 0.013451185
-0.0006504419 -0.0029270446 0.0038318196 -0.013160615 -0.01156305 -0.0077031516 0.0032140128 -0.008174592
-0.0011443811 -0.007777669 0.0036407455 0.004462124 0.005395647 0.015529985 -0.002574832 -0.011275551
0.008222716 -0.008433171 -0.0024015284 -0.012371243 -0.0008475461 0.0051559103 -0.0024774875 0.018187955
0.011230972 -0.0028118647 0.013613919 0.0060363244 -0.0005674373 0.004333744 0.0053469874 0.0011392195
-0.0043832036 0.0027829949 -0.007466125 -0.008783205 -0.007295785 0.010115265 -0.014519559 0.003409617
-0.00015671419 0.018813834 -0.0013000992 0.011030932 -0.0012010114 0.004938441 0.001933312 0.021492036
-0.0021544416 0.0059409183 -0.0020867323 0.018574089 0.0017838106 0.020658206 -0.012933484 -0.012491331
-0.0117458785 -0.011579977 0.015926462 -0.005724617 0.008357269 -0.009930309 -0.0060058204 -0.014720367
0.0073994715 0.014487234 -0.0067536454 0.0036642535 -0.0060087945 -0.0115278615 0.012092152 -0.010442644
-0.011148289 -0.0050536543 0.013843132 -0.008001099 0.016420454 -0.013507681 -0.008031201 -0.0062537002
0.0045933304 -0.0024805989 0.0059828153 -0.0056279423 0.000468283 0.0069210012 0.009952972 -0.009534

linear1.bias f4 [64]
00000000: 777d 653c dbf4 233c 4919 2a3d aeb5 5e3c
00000010: d5f2 a63c 04a0 29bc d58d 8a3c ca16 59bc
00000020: 4388 ed3c 69a7 af3b 4a3a 083d 7375 763c
00000030: a83b 263d 68f1 c5ba c937 f23c 8e56 543c
00000040: 1a5c df3b 0d69 e8bb f898 3cbc 40e3 aabc
00000050: 947d a73a 159c 003c 8b2f 863c 2f41 9abc
00000060: a865 67bc e890 2c3c cf2b 60bc 1830 383b
00000070: 6bff 9c3b 5353 ca3c 0d02 0e3c 4686 853d
00000080: 0584 523c 40d1 b0bc a48d 523c 90b8 08bb
00000090: dcf7 80bc 2caa 2bbd d7fa d9ba e457 d33b
000000a0: a71f 4f3d 97ed 093c 8506 a9bb 6e62 a43c
000000b0: 6ec3 9b3a cca3 2cbc df35 b33c 5bd6 72bc
000000c0: 826a 103d 1df4 9f3c 146f 993b 40df acbc
000000d0: 2597 4d3c d672 d83c 986f 703c 4b52 323c
000000e0: c219 71bb 7370 d73b 6f33 adbb c8d0 43bc
000000f0: 2cad 8ebc fb3d 213d 9231 9dbb 44fb 933b
0.014006964 0.010007109 0.04152802 0.0135931205 0.020379463 -0.010353092 0.016913334 -0.013250062
0.028995639 0.005360533 0.033258714 0.0150426505 0.040584236 -0.0015101852 0.029567616 0.012960089
0.0068163993 -0.007092601 -0.01151108 -0.020860314 0.0012778514 0.007849713 0.016380092 -0.01882991
-0.014123358 0.010532595 -0.01368232 0.0028104838 0.0047911904 0.024697935 0.008667481 0.06519751
0.012848859 -0.021584153 0.012851153 -0.002086196 -0.015743189 -0.041910335 -0.0016630542 0.0064496864
0.050567295 0.008418462 -0.005158248 0.020066466 0.0011883804 -0.010537099 0.021876274 -0.014821614
0.035257824 0.019525582 0.004682431 -0.021102548 0.012548243 0.026421946 0.0146750435 0.010883878
-0.0036789034 0.0065746843 -0.0052856724 -0.011951633 -0.01741656 0.03936575 -0.004797169 0.004516037

linear2.weight f4 [1, 64]
00000000: 3f3a 723b 803e a53d 9932 0dbe bdd4 17bd
00000010: 1da2 27be 2447 a93d c990 28be 6a97 823d
00000020: 002c 23be 4140 673d 2596 25be e0bc 11be
00000030: 7a4f 0dbe b959 bdbd c564 42be c6e6 b53b
00000040: edec 8e3d c3c9 953d a087 d23d ee13 3cbb
00000050: e27e db3c d7b9 423d d301 3fbe dcb5 7ebd
00000060: bb11 a23d 165b 053d dcbd c73d 766b 793d
00000070: 029c 39be d8a8 39be 415c a5bd 42cc 2fbe
00000080: f871 cabd e643 b23d 438c 1d3d 1923 753d
00000090: ab8f 3e3e 7c3c 82bd e3a5 923d 7130 153d
000000a0: 14e5 73be f651 aebd 6460 a73a 1624 11be
000000b0: 3b34 023d b818 f5ba 4cca ffbd 0816 5b3d
000000c0: 5f55 edbd 5cb0 1cbe a4d2 fa3c 7760 2c3d
000000d0: 3731 06be dd3b 03be e32b 25bd 0deb 573b
000000e0: 15ae a63d 7886 13be ef71 efba a7f8 a73d
000000f0: 363b 193c ee79 e0bd 57e8 aabc de44 f5bd
0.0036960987 0.080685616 -0.13788833 -0.037068117 -0.16370435 0.08265522 -0.16461481 0.06376536
-0.15934753 0.05645776 -0.16170557 -0.14232206 -0.13799849 -0.09245629 -0.18983753 0.005551192
0.06978784 0.073138736 0.10279775 -0.0028698402 0.0267939 0.047540512 -0.1865304 -0.062185153
0.07913538 0.03255757 0.0975301 0.0608935 -0.18125919 -0.18130815 -0.08074237 -0.17167762
-0.09885019 0.08704357 0.038463842 0.059847925 0.18609492 -0.06359193 0.07160547 0.03642315
-0.23817855 -0.085117266 0.0012769816 -0.14173922 0.031788092 -0.0018699383 -0.12489757 0.053487808
-0.11588549 -0.15301651 0.03061802 0.042084184 -0.13104711 -0.12815805 -0.040325057 0.0032946498
0.08138672 -0.14406765 -0.0018268208 0.082017235 0.009352496 -0.10960756 -0.020862741 -0.11976026
