boxes/ai/speech/chatNB3/models/sheila.pt (torch, 667397 bytes, 7 tensors)

conv1.weight f4 [32, 1, 2, 2]
0	0x3eaa5f1f	0.33275697
1	0xbef16131	-0.47144464
2	0xba03a3da	-0.0005021669
3	0xbeb63c40	-0.35592842
4	0xbea6d0e1	-0.32581237
5	0x3ec45734	0.3834778
6	0xbecf514a	-0.40491706
7	0xbe566870	-0.20938277
8	0xbed3eb46	-0.41390437
9	0xbed21566	-0.4103195
10	0x3e6781b5	0.22608073
11	0xbe6fbc6f	-0.23411725
12	0xbe672f80	-0.22576714
13	0xbe443916	-0.19162402
14	0xbf0d84b4	-0.55280614
15	0xbe6fcf6e	-0.23418972
16	0x3ec7a9d8	0.38996768
17	0xbea10e00	-0.31455994
18	0xbeabc9f9	-0.3355253
19	0x3e63553f	0.22200488
20	0x3b022038	0.001985563
21	0x3d1d896f	0.038461145
22	0xbea5cbc4	-0.32382023
23	0x3ea47193	0.321179
24	0x3ed478a9	0.41498306
25	0x3e947189	0.2899287
26	0x3ef7d315	0.4840323
27	0x3ccecd33	0.025244331
28	0xbecec102	-0.40381628
29	0xbeea69c7	-0.45783827
30	0x3eb5002c	0.35351694
31	0xbcbacef7	-0.022803767
32	0x3ebce0f5	0.3689038
33	0x3e72b401	0.23701479
34	0xbee5a6d6	-0.44853848
35	0xbe34d02b	-0.17657535
36	0x3e825f47	0.25463316
37	0xbe0635a1	-0.13106395
38	0xbd81eec0	-0.06344366
39	0xbebc154f	-0.36735007
40	0x3e9b5852	0.3034082
41	0x3e2a6f3e	0.16643998
42	0x3bf74992	0.007546612
43	0x3ea8d7bf	0.329771
44	0xbe85928f	-0.26088378
45	0x3ea68723	0.32524976
46	0xbea50e68	-0.32237554
47	0x3dcb8012	0.09936537
48	0x3e3bb203	0.18329625
49	0x3ead59d5	0.338576
50	0xbeaaa1b9	-0.3332651
51	0x3e1d2bf3	0.15348797
52	0x3ed7d15a	0.4215191
53	0xbe4f6cc3	-0.20256333
54	0x3eeb9613	0.46012935
55	0x3e80c4e9	0.2515023
56	0x3ecb737d	0.39736548
57	0x3ea31be7	0.31857225
58	0x3d26a888	0.040688068
59	0xbe618b38	-0.22025764
60	0x3e54c4f9	0.20778264
61	0x3e1215b6	0.14266095
62	0xbdd1472b	-0.10218652
63	0xbed65af4	-0.41866267
64	0x3ec9b059	0.39392355
65	0xbe63315f	-0.22186802
66	0x3e677ea2	0.226069
67	0x3f03c85a	0.5147759
68	0x3e4e9937	0.20175634
69	0x3e942a44	0.28938496
70	0x3c98bb6e	0.018644061
71	0xbe5c35de	-0.21504924
72	0xbeab6e1c	-0.33482444
73	0xbca78421	-0.020448746
74	0x3ec6a6ee	0.38799232
75	0x3ec7bc4b	0.39010844
76	0x3e601fdf	0.21887158
77	0x3e555fba	0.20837298
78	0xbe248041	-0.1606455
79	0x3e8b70af	0.27234408
80	0xbf095787	-0.5364918
81	0xbe286b85	-0.16447265
82	0x3e5a5c63	0.21324305
83	0x3ee04343	0.43801317
84	0xbea462b6	-0.3210656
85	0x3edec161	0.4350691
86	0x3deef1c5	0.11667208
87	0x3e7dd157	0.24786888
88	0xbe1d686f	-0.1537187
89	0x3e6962ba	0.22791567
90	0xbea5a8f3	-0.3235546
91	0x3eefdc90	0.46847963
92	0xbe9cc7a6	-0.3062107
93	0x3d85dfae	0.06536804
94	0xbee2d14f	-0.44300315
95	0x3e50a11e	0.20373961
96	0x3e5713bc	0.21003622
97	0x3e589193	0.21149282
98	0xbe6d4418	-0.23170507
99	0x3db42e7e	0.0879793
100	0xbef79482	-0.4835549
101	0xbeda725d	-0.42665377
102	0xbad2eecf	-0.0016092899
103	0x3efe1263	0.49623403
104	0xbd0cae9c	-0.034346208
105	0x3ed83661	0.42228988
106	0xbeeec8af	-0.46637484
107	0x3e2e7474	0.17036611
108	0x3ed5ddc5	0.4177076
109	0xbdf4d5ca	-0.119548395
110	0xbef1d014	-0.47229064
111	0xbce8b6e8	-0.028407529
112	0xbed683e8	-0.4189751
113	0x3e34c64a	0.17653766
114	0xbefd7f01	-0.4951096
115	0x3e3b81b6	0.183112
116	0x3eb2834f	0.34865806
117	0xbead47a0	-0.33843708
118	0x3d2bf746	0.041983865
119	0x3ec202a5	0.37892643
120	0xbe13bb9b	-0.14427035
121	0xbe563579	-0.20918836
122	0xbe97c612	-0.29643303
123	0x3e957cb8	0.29196715
124	0x3ed2620b	0.41090426
125	0x3e09d859	0.13461436
126	0xbf020f3f	-0.50804514
127	0xbdbea13b	-0.09308096

conv1.bias f4 [32]
0	0xbe3cf7e6	-0.18453941
1	0xbe865b23	-0.26241407
2	0x3e3ad35b	0.18244688
3	0xbea17f8e	-0.3154263
4	0xba81376d	-0.0009858437
5	0x3d160d73	0.03663392
6	0x3ecaa842	0.39581496
7	0x3ea224c6	0.3166868
8	0xbebc6bcb	-0.3680099
9	0x3bfa37e4	0.007636057
10	0x3c72c87f	0.01481831
11	0x3e66e7c0	0.22549343
12	0xbe6e93f7	-0.23298632
13	0xbdbf58ae	-0.09343086
14	0xbdb5cfc3	-0.08877518
15	0x3e47d747	0.19515716
16	0xbda50f67	-0.080595784
17	0x3ef005ed	0.4687952
18	0xbeb8fe5e	-0.36131567
19	0xbd90f8b7	-0.070786886
20	0xbecb78df	-0.39740655
21	0xbe3eeee7	-0.18645822
22	0xbe6f64e8	-0.23378336
23	0x3da7600d	0.08172617
24	0x3ed174bc	0.40909374
25	0xbe1e1f46	-0.15441617
26	0x3e338571	0.17531373
27	0xbdee2cdf	-0.11629652
28	0x3e59c83a	0.21267787
29	0xbd8702a0	-0.065922976
30	0x3e9e2027	0.30883905
31	0x3eaa3f16	0.33251256

conv2.weight f4 [64, 32, 3, 3]
0	0xbb905847	-0.0044050547
1	0xbdaef308	-0.08542448
2	0x3e0aeb73	0.13566379
3	0xbdf75b0f	-0.12077915
4	0x3c0c2715	0.00855424
5	0xbcdb3584	-0.026758917
6	0xbd5ad6a5	-0.053427357
7	0xbda639c1	-0.081164844
8	0x3d8f8cdc	0.07009289
9	0xbdb172c3	-0.08664467
10	0x3c0a6cbf	0.008448779
11	0x3c83a080	0.016067743
12	0xbd3851f4	-0.04500003
13	0xbdb2d81a	-0.08732624
14	0xbcf6ea57	-0.030141039
15	0x3c8be380	0.017076254
16	0xbb966b83	-0.004590453
17	0x3d0523e8	0.032504946
18	0xbd6fe8e0	-0.058571696
19	0xbc8dcf3d	-0.017310733
20	0x3b26fe0c	0.0025481014
21	0xbc04ef11	-0.0081136385
22	0xbcb40e1a	-0.02197938
23	0xbaaa5edf	-0.0012998244
24	0xbce60071	-0.028076382
25	0xbc58c6af	-0.013230964
26	0x3c840a16	0.01611809
27	0xbd75bc17	-0.05999383
28	0xbd061d99	-0.03274307
29	0xbca088ed	-0.019596541
30	0x3c8645f5	0.01639078
31	0xbd0d4c84	-0.0344968
32	0xbc29bdd0	-0.010360196
33	0xbc35967d	-0.0110832425
34	0xbcfdebe4	-0.03099627
35	0xbb83bd6a	-0.0040203827
36	0x3ca10bcb	0.019658944
37	0xbe09b989	-0.13449682
38	0x3e0850dd	0.13312097
39	0x3bb43c68	0.005500365
40	0xbc9b8bfd	-0.01898765
41	0xbd3ca99c	-0.04606019
42	0xbcbbd7a8	-0.022929981
43	0x3cdeef3b	0.027213683
44	0x3d12562b	0.035726707
45	0x3b335f74	0.0027370127
46	0xbbad9d65	-0.005298304
47	0x3c1d3ef7	0.0095975315
48	0x3cd1f5bc	0.02562987
49	0xbcba2540	-0.02272284
50	0xbd71bca9	-0.05901781
51	0x3c0b575c	0.008504715
52	0x3da060c5	0.07830957
53	0xbd26390b	-0.040581744
54	0xbd71546f	-0.058918413
55	0x3b3e88ba	0.0029073195
56	0xbd8c2ed8	-0.06844872
57	0xbcb9f712	-0.02270082
58	0xbcc11264	-0.02356834
59	0xbd285cf9	-0.04110429
60	0xbc44be77	-0.012008301
61	0x3cc3dff3	0.023910498
62	0x3ca7b457	0.020471735
63	0xbbb42f2e	-0.0054987883
64	0xbda7a9fa	-0.08186717
65	0x3cf6c0cd	0.030121231
66	0xbc7041d2	-0.01466413
67	0xbd3fcf42	-0.046828516
68	0xbd4ba51b	-0.049718004
69	0xbd632822	-0.055458196
70	0xbd902210	-0.07037747
71	0xbc397019	-0.01131823
72	0x3caff406	0.021478664
73	0xbc01ff23	-0.0079343645
74	0xbd826dba	-0.06368585
75	0xbd797794	-0.060905054
76	0xbd3613fc	-0.044452652
77	0x371ec670	9.463736e-06
78	0xbce801cd	-0.028321171
79	0x3d35cb59	0.04438338
80	0x3cfff991	0.031246932
81	0xbcab3c2e	-0.02090272
82	0xbab76e29	-0.0013994622
83	0x3dd3ef4b	0.10348376
84	0xbdcb3b6d	-0.09923444
85	0xbbdf0191	-0.0068056067
86	0x3d34cead	0.044142414
87	0xbd2303f5	-0.039798696
88	0xbd729cbc	-0.059231505
89	0x3d072195	0.03299101
90	0x3c4f58d7	0.012655458
91	0x3d084713	0.033270907
92	0xbd4fa219	-0.050691698
93	0x3d89ea27	0.06734114
94	0xbb821194	-0.0039693806
95	0x3d1ff592	0.039052553
96	0x3c985bd6	0.018598478
97	0xbca4bd93	-0.020109927
98	0x3ba25f35	0.004955197
99	0xbc47ecb2	-0.012202429
100	0x3d184260	0.037172675
101	0x3cc9d275	0.024636487
102	0x3cf576c7	0.029963864
103	0x3c4b6d5b	0.012416209
104	0x3d0872cd	0.033312608
105	0x3d321e5d	0.043485988
106	0xbd4578d5	-0.048210938
107	0x3cc97975	0.024594048
108	0xbc80b637	-0.015711887
109	0xbd327031	-0.043564025
110	0xbd7fa6cc	-0.06241493
111	0xbb8f51f1	-0.004373782
112	0x3ce06ac0	0.027394652
113	0xbac95923	-0.0015361648
114	0x3cdf28ce	0.027241137
115	0xbd45ae08	-0.048261672
116	0xbd9ea448	-0.07746178
117	0xbd0cfa4f	-0.0344184
118	0x3c1716fe	0.00922179
119	0x3d9f178a	0.077681616
120	0x3db9d3c4	0.09073594
121	0xbbc069b7	-0.005871977
122	0x3c783536	0.015149405
123	0x3d4562aa	0.048189797
124	0xbc5dffa7	-0.013549722
125	0x3cf2c388	0.029634252
126	0xbd781d5e	-0.06057488
127	0xbd3aa408	-0.04556659
128	0x3c8b4071	0.016998501
129	0xbccdda79	-0.02512859
130	0x3c446613	0.011987227
131	0x3ccba362	0.02485818
132	0xbc8fa704	-0.017535694
133	0xbccf236d	-0.025285447
134	0x3d507eab	0.05090205
135	0xbb7dd245	-0.0038730067
136	0xbc215f59	-0.009849393
137	0xbd8385c5	-0.06421999
138	0x3c411d46	0.0117867645
139	0xbd88b7e5	-0.066757
140	0xbc9dd412	-0.019266162
141	0x3a87acd7	0.0010351193
142	0x3cb6800d	0.022277856
143	0x3ba87398	0.005140733
144	0xbc425097	-0.011860034
145	0xbd86d23e	-0.06583069
146	0x3d4636cb	0.0483921
147	0x3c49a6e3	0.012307855
148	0xbd3d6967	-0.046243098
149	0xbcd25f1d	-0.02568012
150	0xbd1a7b02	-0.037714966
151	0x3d4623bd	0.048373926
152	0x3d201a37	0.0390875
153	0xbc2cb4e3	-0.010541174
154	0xbc82180b	-0.015880605
155	0xbd83080c	-0.06398019
156	0x3cec689f	0.028858481
157	0x3d203fa9	0.03912321
158	0x3d3c14ad	0.045918155
159	0x3c97a25f	0.018510042
160	0xbcf56f89	-0.02996041
161	0xbd0ae6f2	-0.033911653
162	0xbd994cd5	-0.07485358
163	0x3bfcc772	0.0077142054
164	0xbcd6a4a7	-0.02620156
165	0x3c48b171	0.012249337
166	0xbcbbf454	-0.022943653
167	0x3d3bcb02	0.0458479
168	0x3ca61d02	0.020277504
169	0xbbcd0074	-0.0062561575
170	0x3c492220	0.012276202
171	0x3c57d98e	0.013174428
172	0x3b5c42a7	0.0033609064
173	0xbd3ca6ff	-0.046057697
174	0x3c03559c	0.008016016
175	0xbd17afee	-0.037033014
176	0xbce7ecf2	-0.028311227
177	0xbd36971c	-0.044577703
178	0xbd475713	-0.048667025
179	0xbdb863c7	-0.09003406
180	0xbd8b7852	-0.06810059
181	0xbd86b586	-0.065775916
182	0x3d8b998d	0.06816397
183	0xbd27152e	-0.040791683
184	0xbbff0a33	-0.0077831983
185	0xbc8aa102	-0.016922478
186	0x3c12957a	0.008946771
187	0xbb62a755	-0.00345846
188	0x3d631f43	0.055449735
189	0xbdc2c7d7	-0.09510773
190	0x3d4cbf7d	0.049987305
191	0xbd8403c1	-0.064460285
192	0xbd050a95	-0.032480795
193	0xbc07f0b6	-0.008297136
194	0x3ca1f15a	0.019768406
195	0x3c8abf31	0.01693687
196	0xbd56701d	-0.052353013
197	0xbdaf26e1	-0.085523374
198	0xbd3802c7	-0.044924524
199	0xbc3171a0	-0.010830313
200	0x3d57e0f7	0.052704778
201	0xbd80d0dd	-0.062898375
202	0xbd8d9b90	-0.06914437
203	0x3d791344	0.06080939
204	0xbbcaca53	-0.0061886697
205	0xbd597178	-0.053086728
206	0xbd683d17	-0.056698885
207	0x3c3f8ee1	0.01169178
208	0xbce77b45	-0.028257022
209	0xbd39f168	-0.04539624
210	0x3cd2b89e	0.025722798
211	0xbd20b083	-0.039230835
212	0xbbe6b2dc	-0.0070403647
213	0xbd2300a7	-0.039795544
214	0x3d279448	0.040912896
215	0xbdf418f5	-0.11918823
216	0xba8a11b1	-0.0010533837
217	0x3b991850	0.0046720877
218	0xbc170937	-0.009218506
219	0xbccfc1c0	-0.025360942
220	0xb56f7d00	-8.9216337e-07
221	0xbd01acea	-0.031659044
222	0x3d57824d	0.0526145
223	0x3d25128e	0.0403009
224	0xbd0bc629	-0.034124527
225	0xbd59c264	-0.0531639
226	0xbb0a793e	-0.0021129395
227	0x3d9c14b4	0.07621136
228	0x3c6ab611	0.014325635
229	0xbd176ba2	-0.03696788
230	0xbae3cf7e	-0.0017380563
231	0x3cc42af0	0.023946255
232	0xbccc965a	-0.024974037
233	0x3d0c81b5	0.034303386
234	0x3c9ed5f1	0.019389125
235	0xbd1207c9	-0.035651956
236	0x3c360a6c	0.011110883
237	0x3b8d3325	0.0043090754
238	0x3d0ea57d	0.03482579
239	0xbd12676d	-0.035743166
240	0xbb376d6a	-0.00279888
241	0x3c30a0f9	0.010780566
242	0xbd7695a7	-0.060201313
243	0x3ca8087c	0.020511858
244	0xbd3d7fbb	-0.04626439
245	0x3d4a4f87	0.04939225
246	0xbd8b8de3	-0.06814172
247	0x3c735d67	0.014853812
248	0xbd8e8fd3	-0.06961026
249	0xbd5b67d5	-0.05356582
250	0x3d966405	0.07343296
251	0xbd287d5d	-0.04113518
252	0x3c08ac32	0.008341836
253	0x3a9c94c5	0.0011946192
254	0xbd10fa85	-0.035395164
255	0xbd33d537	-0.04390451

conv2.bias f4 [64]
0	0x3d5c0800	0.053718567
1	0x3d90ee3a	0.07076688
2	0x3d5360f6	0.05160614
3	0x3d10ef92	0.035384722
4	0xbd68fcab	-0.056881588
5	0x3d4ed8ad	0.050499607
6	0xbd802c2f	-0.06258427
7	0x3d0cf4b8	0.03441307
8	0xbd1e888b	-0.038704436
9	0x3bc1903b	0.005907086
10	0x3d0822e0	0.033236384
11	0x3d08b9e3	0.0333804
12	0x3c4fc6c4	0.012681667
13	0x3ccb3cec	0.024809323
14	0xbc1e340d	-0.009655965
15	0xbd33cf50	-0.04389888
16	0x3d9a8076	0.07544033
17	0x3da5708a	0.08078106
18	0xbbf8ca1a	-0.0075924518
19	0x3a914ac2	0.0011084902
20	0x3d21675f	0.039405223
21	0x3b999194	0.0046865437
22	0xba86f92f	-0.0010297651
23	0x3d316aa6	0.0433146
24	0xbbb97101	-0.005659223
25	0xbc27951b	-0.010228421
26	0xbcdd6426	-0.027025294
27	0x3d10ea37	0.035379615
28	0x3b4df847	0.0031428502
29	0xbd0bda3e	-0.03414368
30	0xbc5cd5f6	-0.013478747
31	0x3cb23f8f	0.021758823
32	0x3c271db0	0.010199949
33	0xbc9217bc	-0.017833583
34	0x3cebb176	0.028771143
35	0xbbae9907	-0.005328301
36	0x3c8b6f8b	0.017020961
37	0xbd4f05d4	-0.050542668
38	0x3dba58e2	0.09098984
39	0xbd852989	-0.06502063
40	0x3b26f60d	0.0025476248
41	0xbc12d0ec	-0.008960944
42	0x3c711394	0.01471414
43	0x3a62b54a	0.000864823
44	0x3bd829fa	0.006596801
45	0xbca3c1ef	-0.019989936
46	0x3d95b4d4	0.07309881
47	0xbcd3e454	-0.025865711
48	0x3c8c3b2e	0.017118063
49	0x3c98491b	0.018589547
50	0xbd8168d2	-0.06318821
51	0x3cf4eb7c	0.029897444
52	0x3d06caee	0.032908373
53	0x3caabc84	0.020841844
54	0xbdb259e9	-0.08708555
55	0xbd211ea6	-0.03933587
56	0xbd23bd87	-0.03997567
57	0x3d1350fb	0.0359659
58	0x3c97d358	0.018533394
59	0x3b4ea10b	0.0031529095
60	0x3d2fcf53	0.04292233
61	0x3cd56e7d	0.026053661
62	0xbd55a5ab	-0.052159946
63	0x3ca7fc53	0.02050606

linear1.weight f4 [64, 2304]
0	0x3d6f3839	0.058403227
1	0x3dd20fcf	0.102569215
2	0xbd4d2bb0	-0.05009049
3	0x3d8bb3f1	0.068214305
4	0xbd207340	-0.03917241
5	0x3c6cb6a2	0.01444784
6	0xbd67c904	-0.056588188
7	0xbd39bf16	-0.04534825
8	0x3cad4e17	0.0211554
9	0xbd10da14	-0.035364226
10	0xbcf9ee16	-0.030509036
11	0x3cb420dd	0.021988327
12	0x3cd48421	0.02594191
13	0xbb365ad0	-0.0027825125
14	0xbb8330ff	-0.0040036435
15	0xbcc66751	-0.024219187
16	0x3cd0ca45	0.025487075
17	0xbac44374	-0.0014973716
18	0x3cba1cd3	0.022718823
19	0x3d02a327	0.031893875
20	0x3d02d8bb	0.03194497
21	0xbcdfbed5	-0.027312675
22	0xbb412bed	-0.0029475645
23	0xbc130127	-0.008972443
24	0xbd26558f	-0.04060894
25	0xbca8d84f	-0.020610956
26	0x3af1c814	0.0018446469
27	0xbc6af87f	-0.014341473
28	0xbccfb6f8	-0.025355801
29	0xbc249593	-0.010045427
30	0x3cf36312	0.029710326
31	0xbc5e6fac	-0.013576429
32	0xbbbb6dd4	-0.0057198796
33	0xbd1bb9fd	-0.03801917
34	0xbbac541f	-0.0052590515
35	0x3cadefa4	0.021232434
36	0x3d08888e	0.033333354
37	0x3c239bda	0.009985888
38	0x3bb58f9c	0.005540801
39	0x3bbb209c	0.0057106744
40	0xbc36d5f0	-0.011159405
41	0xbca1fb0f	-0.019773034
42	0xbd1377c8	-0.036002904
43	0x3cc3ba64	0.023892589
44	0x3cec408b	0.02883937
45	0x3cf4d946	0.02988876
46	0x3ce2b325	0.027673313
47	0x3bd49d19	0.006488454
48	0x3ca5cb94	0.020238675
49	0x3c760888	0.015016682
50	0xbc8953e1	-0.01676363
51	0xbd157890	-0.03649193
52	0xbc5e5325	-0.013569628
53	0xbcbfd854	-0.023418583
54	0x3cd35eb2	0.02580199
55	0x3cca5442	0.02469838
56	0x3d79a1fb	0.060945492
57	0x3d2f15a7	0.04274526
58	0x3d140583	0.03613807
59	0x3c3fd4b3	0.011708426
60	0xbab79683	-0.0014006648
61	0xba3e2d68	-0.0007254691
62	0xbc256c5d	-0.010096637
63	0xbc708bf2	-0.014681803
64	0xbc58ae17	-0.0132251
65	0xbc9664e2	-0.018358652
66	0xbd29adb8	-0.041425437
67	0xbd3e8356	-0.04651197
68	0x3bde205d	0.0067787603
69	0xbccdbdd2	-0.025114927
70	0xbd1fc6a1	-0.039007787
71	0x3ab809a4	0.0014040959
72	0x3bd63788	0.0065373816
73	0x3d1c8424	0.038211957
74	0x3c9d0b84	0.01917053
75	0x3bf16a80	0.007367432
76	0x3a51b9e2	0.0008000416
77	0x3ccd63d0	0.025072008
78	0xbd0943e8	-0.033512026
79	0x3caa8b67	0.020818425
80	0x3cb62e97	0.022239013
81	0x3c1e2263	0.009651753
82	0x3d85f473	0.065407656
83	0x3d05928e	0.03261047
84	0xbd0720a0	-0.032990098
85	0xbd28a3d4	-0.041171864
86	0xbd383118	-0.044968694
87	0xbd26cf1e	-0.040724866
88	0xbd35c732	-0.04437942
89	0x3a57ab3d	0.00082271156
90	0xbca882fa	-0.020570267
91	0xbca65a4e	-0.020306733
92	0x3c98b07a	0.018638838
93	0x3d06d6e5	0.032919783
94	0x3d053587	0.03252175
95	0x3d054bf9	0.032543156
96	0xbc5c64e9	-0.013451793
97	0xbb0d60c8	-0.0021572579
98	0x3d855fd9	0.06512422
99	0x3d5c14f2	0.053730913
100	0x3d28ffe4	0.04125966
101	0x3cdacc11	0.026708635
102	0xbbf10389	-0.0073551578
103	0xbaa9b2a4	-0.0012946916
104	0x3cd8d8fb	0.026470652
105	0x3d0e4261	0.034731273
106	0x3c0e29a9	0.008676925
107	0xbc098bfe	-0.008395193
108	0x3b9c7c50	0.0047755614
109	0xbbac4f35	-0.0052584657
110	0xbc1381e2	-0.009003134
111	0xbca6669b	-0.020312598
112	0x3b942f45	0.0045222365
113	0x3bd80ed8	0.0065935664
114	0xbc922d76	-0.017843943
115	0xbc8c1444	-0.017099507
116	0xbc0fd822	-0.008779557
117	0x3d0963f9	0.033542607
118	0xbcb61e3c	-0.022231214
119	0xbbbe9772	-0.0058163935
120	0x3ca68a16	0.020329516
121	0xbbddfe0b	-0.006774669
122	0xbcb6e1c8	-0.022324458
123	0xbd00d5f1	-0.03145403
124	0xbd0135b0	-0.03154534
125	0xbc8836fe	-0.016627785
126	0xbbae9dd7	-0.0053288746
127	0x3bc636e6	0.006049025
128	0xbca62420	-0.020280898
129	0x3a8d522e	0.0010781938
130	0x3c840b41	0.016118648
131	0xbc114faa	-0.008869091
132	0xbc6014bf	-0.013676821
133	0xbd039f0d	-0.032134105
134	0xbc9e7b4f	-0.019345907
135	0xbccecb79	-0.025243508
136	0xb954b5d8	-0.00020285638
137	0x3c7068b4	0.014673401
138	0x3c27d1d6	0.0102429
139	0x3c651924	0.013983045
140	0x3c60b3c0	0.013714731
141	0xbb8dfbab	-0.0043329797
142	0x3cb95cf7	0.022627337
143	0x3b61b180	0.0034438074
144	0x3c3b8454	0.011445124
145	0x3d49901a	0.04920969
146	0x3d590393	0.052981924
147	0x3d158f44	0.036513582
148	0x3b55b5d4	0.0032609599
149	0x3d1eea2b	0.03879754
150	0x3d80f9ee	0.0629767
151	0xb9d9a986	-0.0004151577
152	0xbc14e913	-0.009088772
153	0x3cbd7d18	0.023130938
154	0x3da788cb	0.08180388
155	0xbc3efe9c	-0.011657383
156	0xbce738a0	-0.028225243
157	0xbd756038	-0.059906214
158	0xbc9a7aa8	-0.018857315
159	0xbc16b971	-0.009199486
160	0x3bfbaab5	0.007680262
161	0x3d5b4457	0.05353197
162	0xbc3512d3	-0.011051851
163	0xbc3ff343	-0.011715713
164	0x3ca9ba99	0.02071886
165	0x3d3914cd	0.045185853
166	0x3d84a0f4	0.06476012
167	0x3ddc59da	0.10759325
168	0xbd4376e3	-0.0477208
169	0xbcbd94ab	-0.02314218
170	0x3cd9fc3a	0.026609529
171	0x3ca43271	0.020043584
172	0x3d8cc92e	0.068743095
173	0xbd62b3a0	-0.055347085
174	0xbd8b6878	-0.06807035
175	0x3b5e6cf4	0.0033939453
176	0xbc3c0e5e	-0.011478035
177	0xbc6d1326	-0.014469897
178	0x3bd62f05	0.006536367
179	0xbc9fe708	-0.019519344
180	0x3c7a612e	0.0152819585
181	0x3c8935ec	0.016749345
182	0x3c6f1c07	0.014594085
183	0xbae47adf	-0.0017431638
184	0x3c83bdfd	0.016081804
185	0x3c7843c6	0.015152877
186	0x3b283996	0.002566909
187	0xbb519dc7	-0.0031984912
188	0x3cda0592	0.026613984
189	0x3d6a3376	0.057177983
190	0x3bd62b8c	0.006535953
191	0xbc6ffd0d	-0.014647734
192	0xbc234b62	-0.009966703
193	0xbcda7db1	-0.026671262
194	0xbd16816a	-0.036744513
195	0x3cc0fd28	0.023558214
196	0xbbdc4821	-0.0067224656
197	0xbcccfd04	-0.025022991
198	0x3cfcb7b3	0.030849313
199	0x3d433896	0.047661386
200	0x3d8b1697	0.06791418
201	0x3d34ff2c	0.044188663
202	0x3d78c72f	0.06073683
203	0x3d52f6db	0.05150495
204	0xbcbd8f5f	-0.023139654
205	0xbd0cc8fe	-0.03437137
206	0x3afeedfb	0.0019449586
207	0x3ce45758	0.02787368
208	0x3d72dc93	0.059292387
209	0x3ccbf602	0.02489758
210	0xbc9a6dec	-0.018851243
211	0xbd9b54b0	-0.07584512
212	0xbd246053	-0.040130924
213	0xbd76f8fd	-0.060296047
214	0xbd32df80	-0.043670177
215	0xbda3b487	-0.07993417
216	0xbba8263e	-0.005131512
217	0x3c1e48dd	0.009660927
218	0xbce49624	-0.027903624
219	0xbbce36f6	-0.006293173
220	0x3bc7e057	0.0060997414
221	0xbc424972	-0.011858331
222	0x3b462dde	0.0030239741
223	0x3d1e4d01	0.038647655
224	0x3d03773b	0.03209613
225	0xbb9ca300	-0.0047801733
226	0x3d0da4b6	0.03458091
227	0x3c927137	0.01787625
228	0x3d3f48ef	0.046700414
229	0x3ca5fde3	0.020262664
230	0x3d0d816b	0.03454725
231	0x3ca2bd59	0.019865679
232	0x3d2fe00a	0.04293827
233	0x3d555226	0.052080296
234	0x3d9aa98b	0.07551869
235	0xbd3f7227	-0.046739724
236	0xbd67f771	-0.056632463
237	0xbcb68c4c	-0.022283696
238	0xbc4d02e2	-0.012512894
239	0xbd057e57	-0.03259119
240	0x3d0b494d	0.034005452
241	0xbcdbd5ef	-0.02683541
242	0xbc30c258	-0.010788523
243	0xbd35eba6	-0.044414185
244	0xbda55c1f	-0.08074211
245	0xbd2dedec	-0.042463228
246	0x3d9b4f85	0.075835265
247	0xbc2e3fe9	-0.010635355
248	0x3d0c5cd7	0.034268226
249	0x3d71d3e9	0.059039984
250	0x3d18fb01	0.03734875
251	0x3d798ab8	0.060923308
252	0x3c9ca749	0.019122737
253	0x3daeb4ee	0.08530603
254	0x3d50b85c	0.05095707
255	0x3d0d4e4a	0.03449849

linear1.bias f4 [64]
0	0x3aa5512d	0.0012612693
1	0xbc3f12c1	-0.011662186
2	0xbb9a5ecb	-0.0047110072
3	0xbb647545	-0.0034859937
4	0x3c50a9e9	0.012735822
5	0x3cef061a	0.029177714
6	0x3c3c99db	0.011511291
7	0xbc415c1e	-0.011801748
8	0x3c032c3a	0.00800615
9	0x3b36c83d	0.0027890347
10	0x3abe2866	0.0014507889
11	0xbb0db1f2	-0.0021620956
12	0x3cc86e0a	0.024466533
13	0x3c942edc	0.01808875
14	0xbc62dea5	-0.013847028
15	0x3c0fb929	0.008772173
16	0x3cf3d0cc	0.029762648
17	0x3ca05180	0.019570112
18	0x3c8d1ddd	0.017226154
19	0x3c0e2a5b	0.0086770905
20	0x3a03f045	0.00050330564
21	0xbc95c47a	-0.018282164
22	0x3c6b1169	0.014347413
23	0x3cab515d	0.02091282
24	0xbc167f68	-0.009185649
25	0x3c9cd44b	0.019144198
26	0x3c04e40d	0.008111012
27	0xbc9f5fe4	-0.019454904
28	0xbb4f1ae7	-0.0031601728
29	0xbc8c9965	-0.017162988
30	0xbbcfdb44	-0.006343277
31	0x3c625159	0.01381334
32	0xbc8c9751	-0.017161997
33	0xbafde20c	-0.0019369735
34	0xbc13b6f8	-0.009015791
35	0x3abb9ca9	0.0014313656
36	0x3c8070a7	0.015678717
37	0x3c08c807	0.0083484715
38	0x3d168bd8	0.03675446
39	0x3b2833ce	0.0025665644
40	0x3c58869c	0.013215687
41	0x3cdb26bf	0.026751874
42	0xbcaf4a24	-0.021397658
43	0x3b26071a	0.0025333823
44	0x3ceaff6e	0.028686251
45	0x3c2498d0	0.010046199
46	0x3b45c389	0.0030176362
47	0x3bfbc826	0.0076837717
48	0x3bb68522	0.00557007
49	0x3c3cbfd8	0.0115203485
50	0xba713acb	-0.0009202181
51	0x3c151b5a	0.009100759
52	0xbb7b051f	-0.0038302613
53	0x3ccc8d2a	0.024969656
54	0x3d0edef6	0.0348806
55	0xba1530c3	-0.0005691165
56	0xbcb32c1f	-0.021871625
57	0xbc61e5fc	-0.013787743
58	0xbc0ea968	-0.008707382
59	0xbc6ed4a7	-0.014577067
60	0x3cc09dd7	0.023512764
61	0xbc90d2dc	-0.01767867
62	0xba96624f	-0.001147339
63	0x3c8d3b3c	0.01724016

linear2.weight f4 [1, 64]
0	0xbe1f7b40	-0.1557436
1	0x3da684e1	0.081308134
2	0x3cc555b0	0.02408871
3	0x3d9087f6	0.070571825
4	0xbcfbfe03	-0.03076077
5	0xbde3c5dc	-0.11121723
6	0xbe14abef	-0.14518712
7	0x3bd19e56	0.006397049
8	0x3dbcf663	0.09226682
9	0xbde69c96	-0.11260335
10	0x3d0b6203	0.034029018
11	0xbd55d704	-0.052207008
12	0xbddb0e5a	-0.10696097
13	0xbe19f711	-0.15035655
14	0x3d33c17f	0.043885704
15	0x3cd95bc4	0.026533015
16	0xbde6133b	-0.11234137
17	0xbdd6147e	-0.10453127
18	0xbd8fa498	-0.07013816
19	0xbd5e59c2	-0.05428482
20	0x3d8e0676	0.06934826
21	0x3dc7a7ee	0.09748827
22	0xbdd6f5e2	-0.10496117
23	0xbdc0187d	-0.09379671
24	0x3ab1b4b1	0.0013557879
25	0xbe00ddf3	-0.12584667
26	0x3d6f5878	0.05843398
27	0x3db6bfdf	0.08923315
28	0xbda02f95	-0.078215756
29	0xbdb48062	-0.088135496
30	0x3d94fe09	0.07275016
31	0xbd98449a	-0.0743496
32	0x3d71c987	0.059030082
33	0x3d44cb12	0.048045225
34	0x3ddb2cc8	0.10701901
35	0x3d855e68	0.06512147
36	0xbdc42e73	-0.09579172
37	0xbdb02acf	-0.08601915
38	0xbe08221c	-0.13294262
39	0x3dc36786	0.0954123
40	0xbd5d0b54	-0.05396588
41	0xbdac51c5	-0.08414034
42	0x3d918ff3	0.07107534
43	0x3dc96226	0.098331735
44	0xbd7eeb28	-0.06223598
45	0x3d20f979	0.039300416
46	0x3e1963c3	0.14979462
47	0x3dd6f511	0.104959615
48	0xbb9410d9	-0.00451861
49	0x3b95522a	0.004556914
50	0xbd8da8a8	-0.06916934
51	0xbdcbec5d	-0.09957192
52	0xbdb34575	-0.08753482
53	0xbe0bc9a3	-0.13651137
54	0xbe1a0251	-0.15039946
55	0xbbeb98f3	-0.007189864
56	0x3ddbbdb1	0.1072954
57	0xb949e094	-0.00019252516
58	0x3cf581d7	0.029969139
59	0x3dce41a1	0.100711115
60	0xbe04fddc	-0.12987465
61	0x3db9702b	0.090545975
62	0x3d86ec6a	0.06588061
63	0xbdbc83c4	-0.0920482
